…
We could technically use a single output node since we are dealing with a binary
classification task. However, this would require modifying the loss function, as
discussed in an article in the Reference section in appendix B. Therefore, we choose a
more general approach where the number of output nodes matches the number of
classes. For example, for a 3-class problem, such as classifying news articles as
"Technology", "Sports", or "Politics", we would use three output nodes, and so forth.
Before we attempt the modification illustrated in figure 6.9, let's print the model
architecture via print(model), which prints the following:
GPTModel(
(tok_emb): Embedding(50257, 768)
(pos_emb): Embedding(1024, 768)
(drop_emb): Dropout(p=0.0, inplace=False)
(trf_blocks): Sequential(
...
(11): TransformerBlock(
(att): MultiHeadAttention(
(W_query): Linear(in_features=768, out_features=768, bias=True)
(W_key): Linear(in_features=768, out_features=768, bias=True)
(W_value): Linear(in_features=768, out_features=768, bias=True)
(out_proj): Linear(in_features=768, out_features=768, bias=True)
(dropout): Dropout(p=0.0, inplace=False)
)
(ff): FeedForward(
(layers): Sequential(
(0): Linear(in_features=768, out_features=3072, bias=True)
(1): GELU()
(2): Linear(in_features=3072, out_features=768, bias=True)
)
)
(norm1): LayerNorm()
(norm2): LayerNorm()
(drop_resid): Dropout(p=0.0, inplace=False)
)
)
(final_norm): LayerNorm()
(out_head): Linear(in_features=768, out_features=50257, bias=False)
)
© Manning Publications Co. To comment go to liveBook
Licensed to
<18800159600@163.com>220
Above, we can see the architecture we implemented in chapter 4 neatly laid out. As
discussed in chapter 4, the GPTModel consists of embedding layers followed by 12 identical
transformer blocks (only the last block is shown for brevity), followed by a final LayerNorm
…
Total trainable LoRA parameters: 2,666,528
As we can see, we reduced the number of trainable parameters by almost 50x when using
LoRA. A rank and alpha of 16 are good default choices, but it is also common to increase
the rank parameter, which in turn increases the number of trainable parameters. Alpha is
usually chosen to be half, double, or equal to the rank.
Let's verify that the layers have been modified as intended by printing the model
architecture:
device = torch.device("cuda" if torch.cuda.is_available() else "cpu")
model.to(device)
print(model)
The output is as follows:
GPTModel(
(tok_emb): Embedding(50257, 768)
(pos_emb): Embedding(1024, 768)
(drop_emb): Dropout(p=0.0, inplace=False)
(trf_blocks): Sequential(
...
(11): TransformerBlock(
(att): MultiHeadAttention(
(W_query): LinearWithLoRA(
(linear): Linear(in_features=768, out_features=768, bias=True)
(lora): LoRALayer()
)
© Manning Publications Co. To comment go to liveBook
Licensed to
<18800159600@163.com>399
(W_key): LinearWithLoRA(
(linear): Linear(in_features=768, out_features=768, bias=True)
(lora): LoRALayer()
)
(W_value): LinearWithLoRA(
(linear): Linear(in_features=768, out_features=768, bias=True)
(lora): LoRALayer()
)
(out_proj): LinearWithLoRA(
(linear): Linear(in_features=768, out_features=768, bias=True)
(lora): LoRALayer()
)
(dropout): Dropout(p=0.0, inplace=False)
)
(ff): FeedForward(
(layers): Sequential(
(0): LinearWithLoRA(
(linear): Linear(in_features=768, out_features=3072, bias=True)
(lora): LoRALayer()
)
(1): GELU()
(2): LinearWithLoRA(
(linear): Linear(in_features=3072, out_features=768, bias=True)
(lora): LoRALayer()
)
)
)
(norm1): LayerNorm()
(norm2): LayerNorm()
(drop_resid): Dropout(p=0.0, inplace=False)
)
)
(final_norm): LayerNorm()
(out_head): LinearWithLoRA(
(linear): Linear(in_features=768, out_features=2, bias=True)
(lora): LoRALayer()
)
)
As we can see based on the preceding output, the model now includes the new
LinearWithLoRA layers, which themselves consist of the original Linear layers, which we
set to non-trainable, and the new LoRA layers, which we will finetune.
© Manning Publications Co. To comment go to liveBook
Licensed to
<18800159600@163.com>400
However, before we begin finetuning the model, let's calculate the initial classification
…
